…
count":null,"outputs":[{"output_type":"stream","name":"stderr","text":["/usr/local/lib/python3.7/dist-packages/keras/optimizers/optimizer_v2/adam.py:110: UserWarning: The `lr` argument is deprecated, use `learning_rate` instead.\n","  super(Adam, self).__init__(name, **kwargs)\n"]},{"output_type":"stream","name":"stdout","text":["Model: \"sequential_6\"\n","_________________________________________________________________\n"," Layer (type)                Output Shape              Param #   \n","=================================================================\n"," mobilenet_1.00_224 (Functio  (None, 7, 7, 1024)       3228864   \n"," nal)                                                            \n","                                                                 \n"," max_pooling2d_6 (MaxPooling  (None, 3, 3, 1024)       0         \n"," 2D)                                                             \n","                                                                 \n"," flatten_6 (Flatten)         (None, 9216)              0         \n","                                                                 \n"," dense_24 (Dense)            (None, 128)               1179776   \n","                                                                 \n"," batch_normalization_18 (Bat  (None, 128)              512       \n"," chNormalization)                                                \n","                                                                 \n"," dense_25 (Dense)            (None, 1024)              132096    \n","                                                                 \n"," batch_normalization_19 (Bat  (None, 1024)             4096      \n"," chNormalization)                                                \n","                                                                 \n"," dense_26 (Dense)            (None, 128)               131200    \n","                                                                 \n"," batch_normalization_20 (Bat  (None, 128)              512       \n"," chNormalization)                                                \n","                                                                 \n"," dense_27 (Dense)            (None, 9)                 1161      \n","                                                                 \n","=================================================================\n","Total params: 4,678,217\n","Trainable params: 1,446,793\n","Non-trainable params: 3,231,424\n","_________________________________________________________________\n","Epoch 1/20\n","10/10 [==============================] - 3s 143ms/step - loss: 2.037
…
tps://localhost:8080/"},"id":"ka0rKskc2Dtf","executionInfo":{"status":"ok","timestamp":1666533823543,"user_tz":-420,"elapsed":18600,"user":{"displayName":"ta abil","userId":"00146344749013165634"}},"outputId":"2557dd7d-97a9-4957-8d83-14d7e598263b"},"execution_count":null,"outputs":[{"output_type":"stream","name":"stdout","text":["Model: \"sequential_7\"\n","_________________________________________________________________\n"," Layer (type)                Output Shape              Param #   \n","=================================================================\n"," mobilenet_1.00_224 (Functio  (None, 7, 7, 1024)       3228864   \n"," nal)                                                            \n","                                                                 \n"," max_pooling2d_7 (MaxPooling  (None, 3, 3, 1024)       0         \n"," 2D)                                                             \n","                                                                 \n"," flatten_7 (Flatten)         (None, 9216)              0         \n","                                                                 \n"," dense_28 (Dense)            (None, 128)               1179776   \n","                                                                 \n"," batch_normalization_21 (Bat  (None, 128)              512       \n"," chNormalization)                                                \n","                                                                 \n"," dense_29 (Dense)            (None, 1024)              132096    \n","                                                                 \n"," batch_normalization_22 (Bat  (None, 1024)             4096      \n"," chNormalization)                                                \n","                                                                 \n"," dense_30 (Dense)            (None, 256)               262400    \n","                                                                 \n"," batch_normalization_23 (Bat  (None, 256)              1024      \n"," chNormalization)                                                \n","                                                                 \n"," dense_31 (Dense)            (None, 9)                 2313      \n","                                                                 \n","=================================================================\n","Total params: 4,811,081\n","Trainable params: 1,579,401\n","Non-trainable params: 3,231,680\n","_________________________________________________________________\n","Epoch 1/20\n","10/10 [==============================] - 4s 179ms/step - loss: 2.117
…
tps://localhost:8080/"},"id":"k_-oFiiT2gV6","executionInfo":{"status":"ok","timestamp":1666533843026,"user_tz":-420,"elapsed":18847,"user":{"displayName":"ta abil","userId":"00146344749013165634"}},"outputId":"8fb5ba11-e792-4d39-f24a-413c2f294553"},"execution_count":null,"outputs":[{"output_type":"stream","name":"stdout","text":["Model: \"sequential_8\"\n","_________________________________________________________________\n"," Layer (type)                Output Shape              Param #   \n","=================================================================\n"," mobilenet_1.00_224 (Functio  (None, 7, 7, 1024)       3228864   \n"," nal)                                                            \n","                                                                 \n"," max_pooling2d_8 (MaxPooling  (None, 3, 3, 1024)       0         \n"," 2D)                                                             \n","                                                                 \n"," flatten_8 (Flatten)         (None, 9216)              0         \n","                                                                 \n"," dense_32 (Dense)            (None, 128)               1179776   \n","                                                                 \n"," batch_normalization_24 (Bat  (None, 128)              512       \n"," chNormalization)                                                \n","                                                                 \n"," dense_33 (Dense)            (None, 1024)              132096    \n","                                                                 \n"," batch_normalization_25 (Bat  (None, 1024)             4096      \n"," chNormalization)                                                \n","                                                                 \n"," dense_34 (Dense)            (None, 512)               524800    \n","                                                                 \n"," batch_normalization_26 (Bat  (None, 512)              2048      \n"," chNormalization)                                                \n","                                                                 \n"," dense_35 (Dense)            (None, 9)                 4617      \n","                                                                 \n","=================================================================\n","Total params: 5,076,809\n","Trainable params: 1,844,617\n","Non-trainable params: 3,232,192\n","_________________________________________________________________\n","Epoch 1/20\n","10/10 [==============================] - 4s 161ms/step - loss: 1.842
…
tps://localhost:8080/"},"id":"2TTd4axQ6GAj","executionInfo":{"status":"ok","timestamp":1666533871287,"user_tz":-420,"elapsed":27572,"user":{"displayName":"ta abil","userId":"00146344749013165634"}},"outputId":"83901911-b568-4861-da75-6c2961278f90"},"execution_count":null,"outputs":[{"output_type":"stream","name":"stdout","text":["Model: \"sequential_9\"\n","_________________________________________________________________\n"," Layer (type)                Output Shape              Param #   \n","=================================================================\n"," efficientnetb0 (Functional)  (None, 7, 7, 1280)       4049571   \n","                                                                 \n"," max_pooling2d_9 (MaxPooling  (None, 3, 3, 1280)       0         \n"," 2D)                                                             \n","                                                                 \n"," flatten_9 (Flatten)         (None, 11520)             0         \n","                                                                 \n"," dense_36 (Dense)            (None, 128)               1474688   \n","                                                                 \n"," batch_normalization_27 (Bat  (None, 128)              512       \n"," chNormalization)                                                \n","                                                                 \n"," dense_37 (Dense)            (None, 1024)              132096    \n","                                                                 \n"," batch_normalization_28 (Bat  (None, 1024)             4096      \n"," chNormalization)                                                \n","                                                                 \n"," dense_38 (Dense)            (None, 128)               131200    \n","                                                                 \n"," batch_normalization_29 (Bat  (None, 128)              512       \n"," chNormalization)                                                \n","                                                                 \n"," dense_39 (Dense)            (None, 9)                 1161      \n","                                                                 \n","=================================================================\n","Total params: 5,793,836\n","Trainable params: 1,741,705\n","Non-trainable params: 4,052,131\n","_________________________________________________________________\n","Epoch 1/20\n","10/10 [==============================] - 9s 250ms/step - loss: 2.795
…
ps://localhost:8080/"},"id":"pIsQOuhh6QjL","executionInfo":{"status":"ok","timestamp":1666533898658,"user_tz":-420,"elapsed":26517,"user":{"displayName":"ta abil","userId":"00146344749013165634"}},"outputId":"f2241841-be10-4f96-af26-ff62887b872a"},"execution_count":null,"outputs":[{"output_type":"stream","name":"stdout","text":["Model: \"sequential_10\"\n","_________________________________________________________________\n"," Layer (type)                Output Shape              Param #   \n","=================================================================\n"," efficientnetb0 (Functional)  (None, 7, 7, 1280)       4049571   \n","                                                                 \n"," max_pooling2d_10 (MaxPoolin  (None, 3, 3, 1280)       0         \n"," g2D)                                                            \n","                                                                 \n"," flatten_10 (Flatten)        (None, 11520)             0         \n","                                                                 \n"," dense_40 (Dense)            (None, 128)               1474688   \n","                                                                 \n"," batch_normalization_30 (Bat  (None, 128)              512       \n"," chNormalization)                                                \n","                                                                 \n"," dense_41 (Dense)            (None, 1024)              132096    \n","                                                                 \n"," batch_normalization_31 (Bat  (None, 1024)             4096      \n"," chNormalization)                                                \n","                                                                 \n"," dense_42 (Dense)            (None, 256)               262400    \n","                                                                 \n"," batch_normalization_32 (Bat  (None, 256)              1024      \n"," chNormalization)                                                \n","                                                                 \n"," dense_43 (Dense)            (None, 9)                 2313      \n","                                                                 \n","=================================================================\n","Total params: 5,926,700\n","Trainable params: 1,874,313\n","Non-trainable params: 4,052,387\n","_________________________________________________________________\n","Epoch 1/20\n","10/10 [==============================] - 8s 239ms/step - loss: 2.753
…
ps://localhost:8080/"},"id":"72iHozID6RY3","executionInfo":{"status":"ok","timestamp":1666533926954,"user_tz":-420,"elapsed":27439,"user":{"displayName":"ta abil","userId":"00146344749013165634"}},"outputId":"386eb192-e0cf-4121-8a60-6bcfe4a19c60"},"execution_count":null,"outputs":[{"output_type":"stream","name":"stdout","text":["Model: \"sequential_11\"\n","_________________________________________________________________\n"," Layer (type)                Output Shape              Param #   \n","=================================================================\n"," efficientnetb0 (Functional)  (None, 7, 7, 1280)       4049571   \n","                                                                 \n"," max_pooling2d_11 (MaxPoolin  (None, 3, 3, 1280)       0         \n"," g2D)                                                            \n","                                                                 \n"," flatten_11 (Flatten)        (None, 11520)             0         \n","                                                                 \n"," dense_44 (Dense)            (None, 128)               1474688   \n","                                                                 \n"," batch_normalization_33 (Bat  (None, 128)              512       \n"," chNormalization)                                                \n","                                                                 \n"," dense_45 (Dense)            (None, 1024)              132096    \n","                                                                 \n"," batch_normalization_34 (Bat  (None, 1024)             4096      \n"," chNormalization)                                                \n","                                                                 \n"," dense_46 (Dense)            (None, 512)               524800    \n","                                                                 \n"," batch_normalization_35 (Bat  (None, 512)              2048      \n"," chNormalization)                                                \n","                                                                 \n"," dense_47 (Dense)            (None, 9)                 4617      \n","                                                                 \n","=================================================================\n","Total params: 6,192,428\n","Trainable params: 2,139,529\n","Non-trainable params: 4,052,899\n","_________________________________________________________________\n","Epoch 1/20\n","10/10 [==============================] - 9s 263ms/step - loss: 3.274
…
